saved_model.pth (torch, 9183 bytes, 3 tensors)

hidden1.weight f4 [40, 46]
0	0xbecb186b	-0.39667067
1	0xbc94c050	-0.018158108
2	0x3efb13a1	0.49038413
3	0xbcbf4183	-0.023346668
4	0xbe26003e	-0.1621103
5	0x3dcc606c	0.099793285
6	0x3e901b11	0.2814565
7	0xbeb2bb89	-0.34908703
8	0xbe9a0df5	-0.30088773
9	0xbdf375df	-0.118877165
10	0xbf057dec	-0.52145267
11	0xbeabd7c9	-0.33563069
12	0x3dd02898	0.10163993
13	0x3e705b46	0.23472318
14	0x3ef7fbe8	0.48434377
15	0xbef4a423	-0.47781476
16	0x3e035ede	0.12829158
17	0xbd595a6c	-0.05306475
18	0x3dddf907	0.10838514
19	0x3e6e04e2	0.2324405
20	0xbe0482f1	-0.12940575
21	0x3e412195	0.18860467
22	0x3d41ed72	0.047345586
23	0x3e6640ac	0.22485608
24	0x3e41be58	0.18920267
25	0xbd6aba00	-0.05730629
26	0xbcc78a0f	-0.024357824
27	0xbe87e18c	-0.26539266
28	0xbec2a9b8	-0.3802011
29	0xbed31387	-0.41225836
30	0x3e08521b	0.13312571
31	0xbe8084e2	-0.25101382
32	0x3e02e6b0	0.12783313
33	0xbdbd5e2b	-0.09246477
34	0x3da3d963	0.080004476
35	0xbdef274b	-0.116774164
36	0x3e8710a4	0.26379883
37	0x3e8dba13	0.27681026
38	0xbddf87e3	-0.1091459
39	0x3e6a7cf6	0.22899231
40	0x3ecfe80f	0.40606734
41	0x3e1ac4df	0.15114163
42	0x3cda743d	0.026666755
43	0x3e24a439	0.16078271
44	0x3e4a12f6	0.19733796
45	0x3ea167b8	0.31524444
46	0x3f02b529	0.5105768
47	0x3e36c5d3	0.17848901
48	0xbea0540b	-0.3131412
49	0x3b249f58	0.002511939
50	0x3f0c049f	0.5469455
51	0x3e958c7b	0.2920874
52	0x3d6835ad	0.056691814
53	0xbeda9ec2	-0.42699248
54	0xbe6b7863	-0.22995143
55	0x3ee513ac	0.4474157
56	0x3eb81646	0.35954493
57	0x3ececb0b	0.40389284
58	0x3e0b0dfa	0.1357955
59	0x3e5aa6f1	0.21352746
60	0xbb5d4900	-0.0033765435
61	0x3e8beea0	0.27330494
62	0x3eb5369f	0.35393235
63	0x3e858306	0.26076525
64	0x3da41606	0.08012013
65	0x3ec7b1b8	0.39002776
66	0x3eaa8dd7	0.3331134
67	0xbe499f05	-0.19689567
68	0xbe03ad35	-0.12859042
69	0xbe1bdba8	-0.15220511
70	0xbdc50ee3	-0.0962198
71	0x3ef8e94b	0.48615488
72	0xbd59e790	-0.05319935
73	0x3dcf0435	0.10108224
74	0x3e6bc85a	0.23025647
75	0xbcfd807c	-0.030945055
76	0xbe1b5e29	-0.15172638
77	0x3dc75031	0.09732092
78	0x3e9fb6c8	0.3119414
79	0x3e9b0cbf	0.30283162
80	0xbe823a0a	-0.25434905
81	0xbd23423d	-0.03985809
82	0x3d848b6c	0.06471905
83	0x3e331f34	0.17492372
84	0xbd0bfdd2	-0.03417761
85	0x3e4d023b	0.20020382
86	0x3dff7e01	0.12475205
87	0xbdc27126	-0.094942376
88	0x3e95e920	0.29279423
89	0xbdcc3157	-0.09970348
90	0x3e4193fa	0.18904105
91	0x3db76296	0.08954351
92	0x3de59b85	0.112113036
93	0x3df4401d	0.11926291
94	0x3d12ae18	0.03581056
95	0x3e5ac7d1	0.21365286
96	0x3deef6ac	0.11668143
97	0x3e311c4f	0.17295955
98	0xbd57b012	-0.052658148
99	0x3e0ab021	0.1354375
100	0xbec675ab	-0.3876165
101	0xbdd8d0a8	-0.10586673
102	0xbde5b54a	-0.11216219
103	0xbd599b01	-0.05312634
104	0xbe52c17a	-0.20581618
105	0x3ddcb5f8	0.10776895
106	0xbe8ef3b4	-0.27920306
107	0x3e497814	0.19674712
108	0x3def12c4	0.11673501
109	0x3e317144	0.17328364
110	0xbe590b87	-0.21195804
111	0xbe8ccfa6	-0.27502173
112	0xbe87b0a3	-0.2650195
113	0xbdf763a9	-0.120795555
114	0xbeacb4dc	-0.33731735
115	0xbe929595	-0.28629747
116	0xbe8e04ee	-0.27738136
117	0x3e17914f	0.14801525
118	0x3e3f39c5	0.18674381
119	0xbe6e2bee	-0.23258945
120	0xbe49e503	-0.19716267
121	0x3e1360b5	0.1439236
122	0x3e3f1d3e	0.18663499
123	0xbe14c08f	-0.1452658
124	0x3e32085e	0.17386004
125	0x3e77842c	0.24171513
126	0xbe8e2ad2	-0.27767044
127	0xbe53a0b1	-0.20666768
128	0xbcd0edab	-0.025503954
129	0x3e78299d	0.24234624
130	0x3e869a23	0.26289472
131	0x3d9386d1	0.072034486
132	0x3cf85b1a	0.030316878
133	0xbc921a4a	-0.017834801
134	0xbdd054bf	-0.10172414
135	0xbea14d60	-0.31504345
136	0xbc30cb94	-0.010790724
137	0x3d928aa3	0.07155349
138	0xbe55015f	-0.20801304
139	0xbe757229	-0.2396933
140	0x3d03b587	0.03215554
141	0xbdc9b31b	-0.09848615
142	0x3e968dc1	0.29405025
143	0x3e845147	0.2584326
144	0xbb520153	-0.0032044246
145	0x3ee1a152	0.4406839
146	0x3d5b3e38	0.053526133
147	0x3e8cc3d4	0.27493155
148	0xbe9f696f	-0.31135127
149	0x3d8616f3	0.06547346
150	0xbe5a8afa	-0.21342078
151	0x3ec9b9ca	0.39399558
152	0x3d1da882	0.03849078
153	0x3e3b75a5	0.18306597
154	0x3de68ff1	0.112579234
155	0x3dae17cd	0.085006334
156	0xbc224a36	-0.009905389
157	0x3e951737	0.29119274
158	0xbdec1790	-0.11527932
159	0xbda130d1	-0.07870639
160	0xbe8e0fde	-0.2774648
161	0x3d1af84d	0.037834454
162	0x3ec51b76	0.38497514
163	0xbeda047c	-0.42581546
164	0xbd9eee25	-0.07760266
165	0x3e228de0	0.15874434
166	0xbe700d6f	-0.23442625
167	0xbddbfcc3	-0.1074157
168	0x3dea300b	0.11434945
169	0x3ec1cf50	0.3785348
170	0x3e24d05e	0.16095111
171	0x3e4dcffb	0.2009887
172	0x3e26135b	0.16218321
173	0xbb2eb600	-0.0026658773
174	0xbe087e77	-0.13329493
175	0x3eb33401	0.35000613
176	0x3d516cf4	0.051129296
177	0xbd1df27d	-0.038561333
178	0xbb1c8288	-0.0023881514
179	0x3eb6e00b	0.35717806
180	0xbe598728	-0.21242964
181	0xbeeb68c3	-0.45978364
182	0xbdd0fb3d	-0.1020417
183	0xbee68edb	-0.45030865
184	0x3ee9804c	0.45605695
185	0xbdb97966	-0.09056358
186	0xbed732f5	-0.42031065
187	0x3ece214f	0.40259787
188	0x3d0d24f5	0.034459073
189	0x3d802a50	0.062580705
190	0x3de5ce0c	0.11220941
191	0x3e4fd5d0	0.20296407
192	0x3e659d32	0.22423247
193	0x3ed7ecf8	0.4217298
194	0x3ebc1770	0.3673663
195	0xbd9612c1	-0.07327796
196	0xbc540307	-0.012940175
197	0x3d9e4932	0.07728805
198	0x3f064f38	0.5246463
199	0x3e1089d8	0.14115083
200	0x3e876cb6	0.26450127
201	0xbe09dec5	-0.13463886
202	0x3d2a1220	0.04152119
203	0xbd01e77c	-0.0317149
204	0xbc9b49f7	-0.018956168
205	0xbd176798	-0.03696403
206	0x3d92efd0	0.07174647
207	0xbdd0825b	-0.10181113
208	0x3e2d9788	0.16952336
209	0x3e94decf	0.2907624
210	0x3e071822	0.131928
211	0x3f0224aa	0.50837195
212	0x3d5c6299	0.053804968
213	0xbe0c598a	-0.13706031
214	0xbe69f746	-0.22848234
215	0xbe0b10d5	-0.1358064
216	0x3eb05872	0.34442478
217	0x3d03dc7a	0.032192685
218	0x3db0ab34	0.086264044
219	0xbebc3d1e	-0.3676538
220	0xbee58ca0	-0.4483385
221	0xbd8aa207	-0.067691855
222	0xbd97e843	-0.07417347
223	0xbe162a2d	-0.14664526
224	0x3e64eae8	0.22355235
225	0xbe76ac0f	-0.24089073
226	0x3edb1ff9	0.4279783
227	0x3e0452e5	0.12922247
228	0xbdbcf18e	-0.092257604
229	0xbe474645	-0.194604
230	0x3ebb4245	0.36573997
231	0x3b92a649	0.004475389
232	0x3d3c1548	0.045918733
233	0x3c8e4c8d	0.017370487
234	0x3ec37128	0.3817227
235	0xbd62144d	-0.05519514
236	0x3c8a4c7f	0.01688218
237	0x3eb5b8c5	0.3549253
238	0x3e281dd7	0.16417633
239	0x3eb514b2	0.35367352
240	0x3e4056af	0.18783067
241	0x3ed27843	0.41107377
242	0x3ea5b8e5	0.32367626
243	0x3dbd2d17	0.09237116
244	0xbe285e62	-0.16442254
245	0x3e28cc39	0.16484155
246	0x3ec51dfd	0.38499442
247	0xbca974ab	-0.020685514
248	0x3c6e78ba	0.014555151
249	0x3e401c49	0.1876079
250	0xbdf132db	-0.11777278
251	0xbd6ccd3f	-0.057812925
252	0xbdcac31a	-0.09900494
253	0xbdffe3c5	-0.124946155
254	0x3eb3df66	0.35131377
255	0x3da54be8	0.080711186

hidden1.bias f4 [40]
0	0xbd085623	-0.03328527
1	0x3e91fa6e	0.28511375
2	0xbda2f3d8	-0.07956666
3	0x3d669cd3	0.056301903
4	0x3e9cf766	0.306575
5	0x3e2ebb8e	0.17063734
6	0x3e96d896	0.29462117
7	0x3e1e487e	0.15457341
8	0x3cdcc0b3	0.026947355
9	0xba2020f7	-0.0006108428
10	0xbdf12be1	-0.11775947
11	0x3ded6cf6	0.11593048
12	0x3d372f04	0.044722572
13	0x3e291e13	0.16515379
14	0x3e2fc25d	0.17163987
15	0x3d941730	0.07230985
16	0xbdc69c7c	-0.09697816
17	0x3e1fd215	0.15607484
18	0x3e889648	0.26677155
19	0xbe404329	-0.1877562
20	0xbe22406e	-0.1584489
21	0x3c06e645	0.0082336115
22	0x3dbf9bfb	0.09355923
23	0xbccacdf2	-0.024756406
24	0x3e0b445d	0.13600297
25	0x3d9b4f11	0.0758344
26	0xbe167a6c	-0.14695138
27	0xbd0f7183	-0.035020363
28	0x3cb21212	0.021737132
29	0x3e97505c	0.29553497
30	0x3d84068b	0.064465605
31	0x3d0d875b	0.034552913
32	0x3e0136e5	0.12618597
33	0xbd07c4a9	-0.033146534
34	0x3e12ba8f	0.14328979
35	0x3bbb203e	0.0057106307
36	0x3e29c33a	0.1657838
37	0x3eb4cc4c	0.35312116
38	0x3d72ae02	0.059247978
39	0x3df60d42	0.120142475

output.weight f4 [1, 40]
0	0x3e6b751b	0.22993891
1	0x3efb957d	0.49137488
2	0xbdfbc549	-0.122934885
3	0x3eb681c8	0.3564589
4	0x3f0a9c0c	0.5414436
5	0x3ecc48e7	0.3989937
6	0x3ec51b0c	0.38497198
7	0x3ea8c8c5	0.32965675
8	0xbed40737	-0.41411754
9	0xbe768b36	-0.24076542
10	0xbd715c14	-0.058925703
11	0x3e16a14a	0.14709964
12	0x3ed9a3eb	0.42507872
13	0x3eb75df2	0.35813862
14	0x3f1d35c5	0.6141017
15	0x3e2ae240	0.1668787
16	0xbe94cc24	-0.29061997
17	0x3eac713d	0.33680144
18	0x3ee85e63	0.4538451
19	0xbe62e500	-0.22157669
20	0xbf1c52a7	-0.6106362
21	0xbe9c7a65	-0.3056213
22	0xbeb7efdc	-0.35925186
23	0xbe9efd80	-0.3105278
24	0x3f141f8b	0.5786063
25	0x3e63300a	0.22186294
26	0xbea15c6b	-0.31515822
27	0xbe9af9d9	-0.30268744
28	0xbf0a6ebd	-0.54075223
29	0x3ee9304f	0.4554467
30	0xbe8613ba	-0.26186925
31	0xbebcbc61	-0.36862472
32	0x3f0c29bb	0.54751176
33	0xbf087181	-0.53298193
34	0x3e04bffd	0.12963863
35	0xbee7629b	-0.45192418
36	0x3e8bcbbd	0.27303877
37	0x3e128ba8	0.14311087
38	0x3ef30378	0.47463584
39	0x3ee34601	0.44389346
